…
2024-03-22 20:32:56,281 INFO: Training statistics:
	Number of train images: 485
	Dataset enlarge ratio: 1
	Batch size per gpu: 32
	World size (gpu number): 1
	Require iter number per epoch: 16
	Total epochs: 93750; iters: 1500000.
2024-03-22 20:32:56,282 INFO: Dataset [PairedImageDataset] - ValSet is built.
2024-03-22 20:32:56,282 INFO: Number of val images/folders in ValSet: 15
2024-03-22 20:32:56,387 INFO: Network [R2MWCNN] is created.
2024-03-22 20:32:56,582 INFO: Network: R2MWCNN, with parameters: 4,463,104
2024-03-22 20:32:56,582 INFO: R2MWCNN(
  (dwt): DWT_downsampling()
  (cb_11): Rec_Conv_block(
    (conv_0): Conv2d(3, 32, kernel_size=(1, 1), stride=(1, 1), bias=False)
    (conv_1): Conv2d(32, 32, kernel_size=(3, 3), stride=(1, 1), padding=(1, 1), bias=False)
    (conv_2): Conv2d(32, 32, kernel_size=(3, 3), stride=(1, 1), padding=(1, 1), bias=False)
    (conv_3): Conv2d(32, 32, kernel_size=(3, 3), stride=(1, 1), padding=(1, 1), bias=False)
    (conv_4): Conv2d(32, 32, kernel_size=(3, 3), stride=(1, 1), padding=(1, 1), bias=False)
    (bn_0): BatchNorm2d(32, eps=1e-05, momentum=0.95, affine=True, track_running_stats=True)
    (bn_1): BatchNorm2d(32, eps=1e-05, momentum=0.95, affine=True, track_running_stats=True)
    (bn_2): BatchNorm2d(32, eps=1e-05, momentum=0.95, affine=True, track_running_stats=True)
    (bn_3): BatchNorm2d(32, eps=1e-05, momentum=0.95, affine=True, track_running_stats=True)
    (bn_4): BatchNorm2d(32, eps=1e-05, momentum=0.95, affine=True, track_running_stats=True)
  )
  (cb_12): Rec_Conv_block(
    (conv_0): Conv2d(32, 32, kernel_size=(1, 1), stride=(1, 1), bias=False)
    (conv_1): Conv2d(32, 32, kernel_size=(3, 3), stride=(1, 1), padding=(1, 1), bias=False)
    (conv_2): Conv2d(32, 32, kernel_size=(3, 3), stride=(1, 1), padding=(1, 1), bias=False)
    (conv_3): Conv2d(32, 32, kernel_size=(3, 3), stride=(1, 1), padding=(1, 1), bias=False)
    (conv_4): Conv2d(32, 32, kernel_size=(3, 3), stride=(1, 1), padding=(1, 1), bias=False)
    (bn_0): BatchNorm2d(32, eps=1e-05, momentum=0.95, affine=True, track_running_stats=True)
    (bn_1): BatchNorm2d(32, eps=1e-05, momentum=0.95, affine=True, track_running_stats=True)
    (bn_2): BatchNorm2d(32, eps=1e-05, momentum=0.95, affine=True, track_running_stats=True)
    (bn_3): BatchNorm2d(32, eps=1e-05, momentum=0.95, affine=True, track_running_stats=True)
    (bn_4): BatchNorm2d(32, eps=1e-05, momentum=0.95, affine=True, track_running_stats=True)
  )
  (cb_2): Rec_Conv_block(
    (conv_0): Conv2d(128, 64, kernel_size=(1, 1), stride=(1, 1), bias=False)
    (conv_1): Conv2d(64, 64, kernel_size=(3, 3), stride=(1, 1), padding=(1, 1), bias=False)
    (conv_2): Conv2d(64, 64, kernel_size=(3, 3), stride=(1, 1), padding=(1, 1), bias=False)
    (conv_3): Conv2d(64, 64, kernel_size=(3, 3), stride=(1, 1), padding=(1, 1), bias=False)
    (conv_4): Conv2d(64, 64, kernel_size=(3, 3), stride=(1, 1), padding=(1, 1), bias=False)
    (bn_0): BatchNorm2d(64, eps=1e-05, momentum=0.95, affine=True, track_running_stats=True)
    (bn_1): BatchNorm2d(64, eps=1e-05, momentum=0.95, affine=True, track_running_stats=True)
    (bn_2): BatchNorm2d(64, eps=1e-05, momentum=0.95, affine=True, track_running_stats=True)
    (bn_3): BatchNorm2d(64, eps=1e-05, momentum=0.95, affine=True, track_running_stats=True)
    (bn_4): BatchNorm2d(64, eps=1e-05, momentum=0.95, affine=True, track_running_stats=True)
  )
  (cb_3): Rec_Conv_block(
    (conv_0): Conv2d(256, 64, kernel_size=(1, 1), stride=(1, 1), bias=False)
    (conv_1): Conv2d(64, 64, kernel_size=(3, 3), stride=(1, 1), padding=(1, 1), bias=False)
    (conv_2): Conv2d(64, 64, kernel_size=(3, 3), stride=(1, 1), padding=(1, 1), bias=False)
    (conv_3): Conv2d(64, 64, kernel_size=(3, 3), stride=(1, 1), padding=(1, 1), bias=False)
    (conv_4): Conv2d(64, 64, kernel_size=(3, 3), stride=(1, 1), padding=(1, 1), bias=False)
    (bn_0): BatchNorm2d(64, eps=1e-05, momentum=0.95, affine=True, track_running_stats=True)
    (bn_1): BatchNorm2d(64, eps=1e-05, momentum=0.95, affine=True, track_running_stats=True)
    (bn_2): BatchNorm2d(64, eps=1e-05, momentum=0.95, affine=True, track_running_stats=True)
    (bn_3): BatchNorm2d(64, eps=1e-05, momentum=0.95, affine=True, track_running_stats=True)
    (bn_4): BatchNorm2d(64, eps=1e-05, momentum=0.95, affine=True, track_running_stats=True)
  )
  (cb_51): Rec_Conv_block(
    (conv_0): Conv2d(256, 128, kernel_size=(1, 1), stride=(1, 1), bias=False)
    (conv_1): Conv2d(128, 128, kernel_size=(3, 3), stride=(1, 1), padding=(1, 1), bias=False)
    (conv_2): Conv2d(128, 128, kernel_size=(3, 3), stride=(1, 1), padding=(1, 1), bias=False)
    (conv_3): Conv2d(128, 128, kernel_size=(3, 3), stride=(1, 1), padding=(1, 1), bias=False)
    (conv_4): Conv2d(128, 128, kernel_size=(3, 3), stride=(1, 1), padding=(1, 1), bias=False)
    (bn_0): BatchNorm2d(128, eps=1e-05, momentum=0.95, affine=True, track_running_stats=True)
    (bn_1): BatchNorm2d(128, eps=1e-05, momentum=0.95, affine=True, track_running_stats=True)
    (bn_2): BatchNorm2d(128, eps=1e-05, momentum=0.95, affine=True, track_running_stats=True)
    (bn_3): BatchNorm2d(128, eps=1e-05, momentum=0.95, affine=True, track_running_stats=True)
    (bn_4): BatchNorm2d(128, eps=1e-05, momentum=0.95, affine=True, track_running_stats=True)
  )
  (cb_52): Rec_Conv_block(
    (conv_0): Conv2d(128, 128, kernel_size=(1, 1), stride=(1, 1), bias=False)
    (conv_1): Conv2d(128, 128, kernel_size=(3, 3), stride=(1, 1), padding=(1, 1), bias=False)
    (conv_2): Conv2d(128, 128, kernel_size=(3, 3), stride=(1, 1), padding=(1, 1), bias=False)
    (conv_3): Conv2d(128, 128, kernel_size=(3, 3), stride=(1, 1), padding=(1, 1), bias=False)
    (conv_4): Conv2d(128, 128, kernel_size=(3, 3), stride=(1, 1), padding=(1, 1), bias=False)
    (bn_0): BatchNorm2d(128, eps=1e-05, momentum=0.95, affine=True, track_running_stats=True)
    (bn_1): BatchNorm2d(128, eps=1e-05, momentum=0.95, affine=True, track_running_stats=True)
    (bn_2): BatchNorm2d(128, eps=1e-05, momentum=0.95, affine=True, track_running_stats=True)
    (bn_3): BatchNorm2d(128, eps=1e-05, momentum=0.95, affine=True, track_running_stats=True)
    (bn_4): BatchNorm2d(128, eps=1e-05, momentum=0.95, affine=True, track_running_stats=True)
  )
  (conv_5): Conv2d(128, 256, kernel_size=(3, 3), stride=(1, 1), padding=(1, 1), bias=False)
  (bn_5): BatchNorm2d(256, eps=1e-05, momentum=0.8, affine=True, track_running_stats=True)
  (up): IWT_upsampling()
  (up_conv_1): Rec_Conv_block(
    (conv_0): Conv2d(64, 128, kernel_size=(1, 1), stride=(1, 1), bias=False)
    (conv_1): Conv2d(128, 128, kernel_size=(3, 3), stride=(1, 1), padding=(1, 1), bias=False)
    (conv_2): Conv2d(128, 128, kernel_size=(3, 3), stride=(1, 1), padding=(1, 1), bias=False)
    (conv_3): Conv2d(128, 128, kernel_size=(3, 3), stride=(1, 1), padding=(1, 1), bias=False)
    (conv_4): Conv2d(128, 128, kernel_size=(3, 3), stride=(1, 1), padding=(1, 1), bias=False)
    (bn_0): BatchNorm2d(128, eps=1e-05, momentum=0.95, affine=True, track_running_stats=True)
    (bn_1): BatchNorm2d(128, eps=1e-05, momentum=0.95, affine=True, track_running_stats=True)
    (bn_2): BatchNorm2d(128, eps=1e-05, momentum=0.95, affine=True, track_running_stats=True)
    (bn_3): BatchNorm2d(128, eps=1e-05, momentum=0.95, affine=True, track_running_stats=True)
    (bn_4): BatchNorm2d(128, eps=1e-05, momentum=0.95, affine=True, track_running_stats=True)
  )
  (up_conv_2): Rec_Conv_block(
    (conv_0): Conv2d(64, 128, kernel_size=(1, 1), stride=(1, 1), bias=False)
    (conv_1): Conv2d(128, 128, kernel_size=(3, 3), stride=(1, 1), padding=(1, 1), bias=False)
    (conv_2): Conv2d(128, 128, kernel_size=(3, 3), stride=(1, 1), padding=(1, 1), bias=False)
    (conv_3): Conv2d(128, 128, kernel_size=(3, 3), stride=(1, 1), padding=(1, 1), bias=False)
    (conv_4): Conv2d(128, 128, kernel_size=(3, 3), stride=(1, 1), padding=(1, 1), bias=False)
    (bn_0): BatchNorm2d(128, eps=1e-05, momentum=0.95, affine=True, track_running_stats=True)
    (bn_1): BatchNorm2d(128, eps=1e-05, momentum=0.95, affine=True, track_running_stats=True)
    (bn_2): BatchNorm2d(128, eps=1e-05, momentum=0.95, affine=True, track_running_stats=True)
    (bn_3): BatchNorm2d(128, eps=1e-05, momentum=0.95, affine=True, track_running_stats=True)
    (bn_4): BatchNorm2d(128, eps=1e-05, momentum=0.95, affine=True, track_running_stats=True)
  )
  (up_conv_3): Rec_Conv_block(
    (conv_0): Conv2d(32, 128, kernel_size=(1, 1), stride=(1, 1), bias=False)
    (conv_1): Conv2d(128, 128, kernel_size=(3, 3), stride=(1, 1), padding=(1, 1), bias=False)
    (conv_2): Conv2d(128, 128, kernel_size=(3, 3), stride=(1, 1), padding=(1, 1), bias=False)
    (conv_3): Conv2d(128, 128, kernel_size=(3, 3), stride=(1, 1), padding=(1, 1), bias=False)
    (conv_4): Conv2d(128, 128, kernel_size=(3, 3), stride=(1, 1), padding=(1, 1), bias=False)
    (bn_0): BatchNorm2d(128, eps=1e-05, momentum=0.95, affine=True, track_running_stats=True)
    (bn_1): BatchNorm2d(128, eps=1e-05, momentum=0.95, affine=True, track_running_stats=True)
    (bn_2): BatchNorm2d(128, eps=1e-05, momentum=0.95, affine=True, track_running_stats=True)
    (bn_3): BatchNorm2d(128, eps=1e-05, momentum=0.95, affine=True, track_running_stats=True)
    (bn_4): BatchNorm2d(128, eps=1e-05, momentum=0.95, affine=True, track_running_stats=True)
  )
  (out_conv_1): Conv2d(128, 256, kernel_size=(3, 3), stride=(1, 1), padding=(1, 1), bias=False)
  (out_conv_2): Conv2d(128, 128, kernel_size=(3, 3), stride=(1, 1), padding=(1, 1), bias=False)
  (out_conv_3): Conv2d(128, 128, kernel_size=(3, 3), stride=(1, 1), padding=(1, 1), bias=False)
  (bn_out_3): BatchNorm2d(128, eps=1e-05, momentum=0.8, affine=True, track_running_stats=True)
  (out_conv_out1): Conv2d(128, 128, kernel_size=(3, 3), stride=(1, 1), padding=(1, 1), bias=False)
  (out_conv_out2): Conv2d(128, 3, kernel_size=(1, 1), stride=(1, 1), bias=False)
  (atten): Atten(
    (global_pool): AdaptiveAvgPool2d(output_size=1)
    (fc1): Linear(in_features=128, out_features=32, bias=True)
    (relu): ReLU()
    (fc2): Linear(in_features=32, out_features=128, bias=True)
    (softmax): Softmax(dim=1)
  )
)
2024-03-22 20:32:56,583 INFO: Loss [SmoothL1Loss] is created.
2024-03-22 20:32:58,340 INFO: Loss [PerceptualLoss] is created.
2024-03-22 20:32:58,343 INFO: Loss [SobelEdgeLoss] is created.
2024-03-22 20:32:58,343 INFO: Loss [ChannelLoss] is created.
2024-03-22 20:32:58,343 INFO: Loss [SSIMLoss] is created.
2024-03-22 20:32:58,344 INFO: Loss [RegionLoss] is created.
…
